Model: "WalkModel"
_________________________________________________________________
Layer (type)                 Output Shape              Param #   
=================================================================
input_5 (InputLayer)         [(None, 100, 3)]          0         
_________________________________________________________________
tf_op_layer_strided_slice_4  [(None, 99, 3)]           0         
_________________________________________________________________
dense_12 (Dense)             (None, 99, 128)           512       
_________________________________________________________________
instance_normalization_8 (In (None, 99, 128)           256       
_________________________________________________________________
tf_op_layer_Relu_8 (TensorFl [(None, 99, 128)]         0         
_________________________________________________________________
dense_13 (Dense)             (None, 99, 256)           33024     
_________________________________________________________________
instance_normalization_9 (In (None, 99, 256)           512       
_________________________________________________________________
tf_op_layer_Relu_9 (TensorFl [(None, 99, 256)]         0         
_________________________________________________________________
gru_12 (GRU)                 (None, 99, 1024)          3938304   
_________________________________________________________________
gru_13 (GRU)                 (None, 99, 1024)          6297600   
_________________________________________________________________
gru_14 (GRU)                 (None, 512)               2362368   
_________________________________________________________________
dense_14 (Dense)             (None, 22)                11286     
=================================================================
Total params: 12,643,862
Trainable params: 12,643,862
Non-trainable params: 0
_________________________________________________________________
Accuracy: [46.74 46.67]%, Iter: 10092
Accuracy: [66.77 66.78]%, Iter: 20184
Accuracy: [75.72 75.74]%, Iter: 40020
Accuracy: [81.79 81.82]%, Iter: 60088
Accuracy: [86.49 86.52]%, Iter: 80040
…
